checkpoint.pt (torch, 271524 bytes, 8 tensors)

linear0.weight f8 [128, 2]
000000 92 87 5f a9 32 67 e3 3f 74 d4 04 67 c0 d8 e2 bf
       0.6063473995275095 -0.5889589321219675
000010 54 b6 97 64 f1 9f e0 bf 81 18 c7 a7 3a 0a df bf
       -0.5195242848109936 -0.48499933609526386
000020 35 d1 c7 a6 9a 8f c6 bf de c1 7d 0e 59 00 df 3f
       -0.1762574495657049 0.48439623274955845
000030 48 d3 f2 24 55 c4 e0 3f 2a 22 6b 71 47 2b c6 bf
       0.5239663812304594 -0.1731957725335332
000040 f4 eb a6 34 64 5a c4 3f 87 31 5f 4a da a3 e2 bf
       0.1590085274782208 -0.582501549966353
000050 e8 f6 12 3d 7c 35 d2 3f 9c 47 8e 71 a0 56 c6 3f
       0.284514484064728 0.1745186380836089
000060 d2 ab 4c 52 2a b5 b6 bf f5 d3 31 2e ce 3e e3 bf
       -0.08870186337723787 -0.6014166738738128
000070 bc d8 1a e0 29 9a d0 3f 57 ed af 48 85 fe d0 bf
       0.2594093979381673 -0.265534707053765
000080 e8 46 66 c5 31 48 d1 bf e2 3e 6b 85 88 35 e5 bf
       -0.27003139760300465 -0.6627848249281352
000090 84 09 35 61 f8 cc e4 bf 38 5b 5b 62 c2 8b e3 3f
       -0.65002078042771 0.6108104630501208
0000a0 e7 4d 5d 05 5a 7c df bf 35 5b 96 7b f6 43 d5 bf
       -0.4919648220431711 -0.3322731215388786
0000b0 3c 4f bd 77 87 b9 e0 bf e6 fc af c2 a8 75 d6 bf
       -0.5226476038610381 -0.35093134891935873
0000c0 bc 25 b4 10 12 21 d8 bf 1e ba 34 4d 7b d4 d8 bf
       -0.37701846724720744 -0.3879688505138875
0000d0 9f d3 3d 16 0a 83 d0 bf c6 9c 15 97 ca b5 c4 3f
       -0.2579980103685617 0.16179783227128136
0000e0 da 02 63 14 d3 b2 c1 3f 34 8f f5 b8 90 96 df 3f
       0.13826979155967117 0.4935647779695842
0000f0 70 e6 9f 60 21 28 e5 bf 6f de ce b4 df 43 d1 bf
       -0.6611487281035817 -0.2697676912025377
000100 f1 c0 15 2b 2c 82 b8 bf 65 b3 63 d8 75 a7 e3 3f
       -0.09573627521399765 0.6141919351917805
000110 d9 d4 40 e4 96 17 e1 bf 09 18 5b 02 4b 2d ba bf
       -0.5341295679160353 -0.10225361640468135
000120 e4 0b 72 6c df 2b d3 bf 10 f4 c8 36 26 c9 e5 3f
       -0.29955278005962627 0.680804354669478
000130 32 62 0d 0b 6d 48 df 3f 06 cb 9e 58 a9 f2 c4 bf
       0.48879552916835955 -0.16365544154322026
000140 c6 03 86 b2 20 22 e2 bf 9d 86 ff bc 42 71 cd 3f
       -0.5666659819399846 0.23001894215035615
000150 26 96 3c 49 d0 a9 bd 3f 51 8e 8f 87 06 f2 d2 3f
       0.11587240016941588 0.2960220645747756
000160 a8 25 50 ac ea 40 a4 bf c0 2f fa be 99 61 e2 bf
       -0.039557775053320754 -0.57441413212063
000170 5a 9a df 6d 57 43 c3 3f 11 11 29 7d 8f a2 53 bf
       0.1504926001063776 -0.0011984254130235664
000180 87 ac 67 1a 7f 8e e6 3f 3d 7f 53 70 e0 32 d8 bf
       0.7048945918771928 -0.3781052681861075
000190 de 4c 86 27 b4 01 c7 bf 98 0a 02 b8 16 b7 c6 3f
       -0.1797394936553251 0.17746242508663523
0001a0 f0 ad 02 1d 69 3a d4 bf dc 46 c1 37 31 20 e6 bf
       -0.3160651000314081 -0.6914297188725089
0001b0 6d 75 77 f1 c3 2a d4 3f b4 d3 7b b7 3a 3a d6 bf
       0.3151101930687535 -0.3473040382225989
0001c0 0f 01 df 66 e9 ad c7 3f 28 0c 58 3d 55 73 ca bf
       0.1849948646831838 -0.20664468283948279
0001d0 b9 be 82 85 cc 25 b5 bf 29 e5 b2 5c d5 6b c4 3f
       -0.08260801562823418 0.15954081560429614
0001e0 3d 64 f2 3e 64 13 e2 3f b9 df 54 45 2a 44 d0 3f
       0.5648671369009503 0.2541604687753494
0001f0 31 3c 7b 75 36 17 e0 bf fb af d8 a5 02 be b4 3f
       -0.502833585220179 0.08102432774529682
000200 2d 68 02 dd c5 41 e5 3f 8e fb 18 10 78 42 d1 bf
       0.6642789188947568 -0.2696819455340397
000210 af f9 22 d6 7c af e3 bf 7d 38 4f fc 94 09 ca 3f
       -0.6151718313556581 0.20341741866872445
000220 a6 5b 8e be 58 53 e6 bf 61 79 0c e9 e7 52 b6 3f
       -0.697674152545791 0.08720254363695325
000230 ab 18 87 1a ec f6 c9 3f 7a 68 11 f8 1b 64 e0 bf
       0.2028479699640163 -0.5122203679159292
000240 e2 14 4a 9c 29 1e d2 bf 7e 24 68 db 69 95 c8 3f
       -0.283090975405072 0.19205973828528394
000250 f1 ce 7e e6 ca 15 95 3f 38 5f 7a 7f 12 37 d0 3f
       0.020590944593734176 0.25336134385132736
000260 cf d3 13 82 1a 18 de bf 3f 4c ae 45 0c bb e1 3f
       -0.4702211637771229 0.5540830002740974
000270 1b 89 be 82 22 84 e5 3f 06 54 48 36 34 20 d8 bf
       0.672379737243577 -0.37696557332066083
000280 18 2f 69 db 39 b4 d3 3f 19 34 da b5 0f 19 e6 bf
       0.30787512232630965 -0.6905592490962845
000290 1d 46 ed d0 91 46 e2 bf 4b 39 8a c4 1a 6a e3 3f
       -0.5711144524195252 0.606702216975273
0002a0 c4 18 8e 86 ba 64 d4 3f 88 99 9e c6 ca a7 e2 bf
       0.3186479867948828 -0.5829824332511615
0002b0 6b f0 52 bf a2 dd 78 bf b0 86 b1 14 b2 f2 e3 3f
       -0.0060707433050844846 0.6233759311837357
0002c0 96 eb c0 78 65 b3 d2 bf 83 64 b4 fe ed 92 b4 3f
       -0.292199485705788 0.08036696880698639
0002d0 f5 26 e9 5d f8 d3 c2 3f ed 8a ac 1f 64 fc e3 bf
       0.14709381661878465 -0.6245594614632332
0002e0 76 0b a3 bc 45 e4 e4 3f e2 59 65 e2 91 14 c8 bf
       0.6528652843775109 -0.18812774233329238
0002f0 c9 30 ce 40 fd cc c7 bf fd 56 c5 70 79 3f db 3f
       -0.1859432760651372 0.42574916851786765
000300 79 69 f4 a3 c3 1b b3 3f 49 d9 44 85 e6 c0 d1 3f
       0.07464239838410504 0.27739871038956615
000310 d0 fd ad 02 35 47 b2 3f 4a d1 8f f0 92 e7 a9 bf
       0.07139903369351619 -0.050594894280865235
000320 2f 98 ef 08 00 c3 c7 bf 3f 17 5b 13 a5 77 bc 3f
       -0.1856384318954851 0.11120063517145427
000330 8a 65 da c5 6d 08 cc 3f 0c a9 0d 04 5e 1d c0 bf
       0.2190072265700958 -0.12589621732633594
000340 ff ea 2a 90 e5 da dc bf a6 23 36 3e d6 af e5 bf
       -0.4508603961836996 -0.6777144637172696
000350 74 78 f4 b5 d1 3e e5 bf 32 64 16 be 81 2a da bf
       -0.6639183572585936 -0.4088444095919527
000360 40 a9 c6 d5 5e be d6 3f fc b6 05 c6 b2 06 e3 3f
       0.35536929012836893 0.5945676677344802
000370 55 39 86 f8 78 4e e2 bf 4e ea 30 09 d0 da e4 3f
       -0.5720791677465892 0.6517105273736179
000380 31 8c 0c e7 9c 65 ba 3f 11 9e 8b ee 7c e1 c8 3f
       0.10311298981518814 0.19438134811137833
000390 6e 2c a7 ed 3d 9b db bf 42 91 d8 08 97 b7 d4 bf
       -0.4313502140836992 -0.3237054430376426
0003a0 f6 89 bf 0e 40 93 c4 bf e7 de 7a 1c fc 2a dc 3f
       -0.16074372024657152 0.44012358456846673
0003b0 d3 a9 ad b9 8a 9e d3 3f 98 43 19 45 75 9f d2 bf
       0.306551629377876 -0.29098254917067257
0003c0 b6 85 07 b1 79 00 d9 3f 11 53 e5 68 7f b7 d7 bf
       0.390654013519533 -0.37057481044512125
0003d0 dc 2d 3e 09 4f 27 e6 bf 8f 24 8d 38 66 30 e0 3f
       -0.6922984295392172 0.5059081177252142
0003e0 ba 2c 02 ed 2c 0d e1 3f 5b ee 11 24 e7 c4 96 bf
       0.5328583363601844 -0.022235499931851126
0003f0 bb d3 0e c6 75 37 b7 bf fe c1 a0 5e 7c 0c e3 bf
       -0.09069000325582881 -0.595274147815928
000400 06 ce c2 5d 4d fd e2 3f b8 69 46 9a 30 54 98 bf
       0.5934206801670718 -0.02375865880603964
000410 0d 41 2f 40 35 99 d9 3f df 06 0e f3 54 51 d3 3f
       0.3999760748674966 0.3018391011793095
000420 10 40 55 c5 2e 46 da bf 41 30 3f ec 05 76 e2 bf
       -0.41053361197282445 -0.576907121104803
000430 74 4e 67 b8 e2 2d cb 3f c7 33 7a fd 43 73 c8 bf
       0.2123378181846537 -0.1910176265413652
000440 1d c0 0f 95 52 43 db bf 32 2c f9 85 0c 8d ca bf
       -0.4259840446165997 -0.2074294714132932
000450 f2 c9 a4 c2 c1 19 b0 3f f3 e8 4c b4 cc 51 c4 bf
       0.0628930187420236 -0.15874632648212347
000460 d8 b8 33 1e 1c 5b 93 bf ec 53 1e 69 7a e3 b9 bf
       -0.018902243941675362 -0.10112729135865067
000470 5a fe 79 d0 35 67 ce 3f f6 76 82 af a0 cf e0 bf
       0.23752472571867395 -0.5253451755449692
000480 dd 83 12 53 65 38 c6 3f 5e df 05 6c 9b 25 d6 3f
       0.17359606319681023 0.34604535626521293
000490 dc 02 28 f1 c8 3c c2 bf fb a1 c4 8b 81 4c c4 3f
       -0.1424800088425603 0.15858477902044385
0004a0 d2 17 10 43 b8 be d4 3f 94 ce 41 8d 75 54 a8 3f
       0.32414061116321335 0.04751937245683027
0004b0 78 c5 9b a5 f7 e0 da 3f 67 40 dc ff 0b 72 d0 3f
       0.4199809186239558 0.2569608687053972
0004c0 7a 10 5f 48 9c 70 c4 bf ea 77 51 55 fa 5a d9 bf
       -0.15968659909970367 -0.3961778481660746
0004d0 bb 60 a6 9a 47 ec e4 3f 17 00 f4 b9 f9 8e a6 bf
       0.6538427372461436 -0.04405956644950509
0004e0 86 ab 0f 40 3f 21 d5 bf c1 7a 8d 1b da b5 e2 3f
       -0.33015424018838535 0.5846987283838062
0004f0 86 c1 6e 2b bf 0e d2 3f cf 22 d5 06 2c b5 e4 3f
       0.2821500705859069 0.6471157201241001
000500 51 52 3f 68 9e 2b e6 3f 13 4b d5 45 95 b1 85 3f
       0.6928245578843165 0.010592619126929692
000510 e2 8d 20 a3 94 ca df bf e3 4e ac 36 98 7b cb 3f
       -0.4967395394362183 0.21470930738052293
000520 3b c6 69 c2 bd 5a e5 3f 13 c4 12 78 99 20 d8 3f
       0.6673268124706689 0.3769897148695815
000530 91 84 3a 28 82 71 e0 3f dd 8b 52 c6 4c d8 d0 bf
       0.5138560090746457 -0.26320189826418333
000540 33 0f 50 3a cc fd e1 bf 4a fd e0 7d 9e cb e4 bf
       -0.5622311724587007 -0.6498558481761532
000550 07 71 d8 19 c5 16 e5 bf 54 ac 4a a3 63 df bb bf
       -0.659029531936114 -0.10887739884008002
000560 6d 98 d0 d5 58 dd c9 3f 20 b1 c3 32 78 86 76 3f
       0.2020674747483925 0.005499333881953811
000570 5f 26 db dc 53 3a c3 bf 5a 31 ae 54 b8 aa d8 3f
       -0.15021751674639724 0.3854199244458606
000580 40 00 47 c0 98 56 da 3f 96 71 27 0d c6 51 d5 bf
       0.4115354421337578 -0.3331160667856009
000590 63 ce 90 66 b6 ab ca 3f fa 9c 7e b8 3c f7 ce 3f
       0.2083652497109255 0.24192008026623296
0005a0 88 9b ed 41 b0 4e e4 bf 20 25 90 bd 4e 4f d4 3f
       -0.6346055305156009 0.31734055053728305
0005b0 04 9d 86 80 d3 e1 d0 bf 31 25 e4 72 ae 94 cf 3f
       -0.26378333617545047 0.24672489747926243
0005c0 f3 b8 93 91 98 ac 68 bf e4 b2 69 b7 dd 15 e4 bf
       -0.0030119876724859994 -0.6276691992075851
0005d0 15 1b f4 fe d5 9d c0 3f 92 88 82 3c 62 3a ce bf
       0.12981677006629214 -0.23615673021874223
0005e0 1e 1e 2c f5 bf da dc bf c7 d6 3d 31 09 48 d7 3f
       -0.45085143034563824 0.36377172287698695
0005f0 6c f7 ab ba c7 bf d3 bf 6a 47 fc ef 2c e6 d6 3f
       -0.30858033399260054 0.3577987998588613
000600 4d 30 db e6 04 80 dc bf 4b ce b4 24 c5 3b e1 3f
       -0.4453136686759123 0.538546153728427
000610 0d ac 09 96 35 6a d0 bf 48 27 5b 40 e8 eb e5 bf
       -0.2564825024807654 -0.6850472695307213
000620 13 58 f7 6e 2f a0 d7 bf b9 82 51 c1 fe 1e e5 3f
       -0.36915193401853336 0.6600335860967653
000630 2a 03 df 7e fc 5e de 3f af 33 eb 9f 00 65 dc 3f
       0.47454750432739223 0.44366469971719885
000640 96 5a 56 1c f6 d2 df 3f 00 42 af d0 88 3b c8 bf
       0.49725106017414455 -0.18931684674909377
000650 45 ff 45 2f ed e2 cd bf 99 ae 4d d2 ba c4 db 3f
       -0.2334877472712781 0.4338824323410591
000660 42 22 d4 f7 c2 90 e6 bf 5a 78 e4 74 4c a5 d9 bf
       -0.70517109302552 -0.40071402945784984
000670 f6 01 11 7d e5 c7 d1 bf 1b a0 b2 7d 19 2b af 3f
       -0.2778257104255596 0.060875698656048104
000680 38 7d 99 f3 55 79 e1 3f 0c 4c 2f a0 5c 79 bd bf
       0.546061492710499 -0.11513308439980124
000690 54 7b 8b 5e d3 74 dc 3f df ab a2 a6 b0 c2 b2 bf
       0.4446304724969441 -0.07328323429344107
0006a0 67 fd e8 ef 2c 4a da bf 42 f2 21 b9 62 5b da 3f
       -0.41077731541368795 0.41182773665767425
0006b0 17 36 9f bd e6 eb e1 3f d7 d6 3a 42 35 4f df 3f
       0.5600465491822345 0.48920947520978814
0006c0 68 bd 70 01 0c eb e2 bf 87 c5 f9 43 ea 8a e0 bf
       -0.5911922481663341 -0.516957409634572
0006d0 02 1c 4d 3e 9e 44 d1 3f 43 f7 53 c7 57 6b d4 3f
       0.26981311878302006 0.3190516897737902
0006e0 e0 cb c4 c2 8f b9 e3 bf 5a c0 0a 74 7c 9d e2 3f
       -0.6164015583111642 0.581724383015181
0006f0 a9 ce 09 a9 f9 08 ba 3f c2 5a 7a ba 2c c2 d8 3f
       0.1016994512263475 0.3868514844011025
000700 2b 03 b1 d3 5a f6 c1 bf fc 8f 09 ea a9 7c 53 bf
       -0.14033065163132483 -0.001189390117496635
000710 b0 f7 bb 4f 24 e7 cf 3f d4 37 09 b8 54 2f e0 3f
       0.24924138921045147 0.5057777018025669
000720 56 70 ca ab 41 aa bd 3f 85 78 0c 88 11 a4 e5 bf
       0.11587915844069249 -0.6762778908921666
000730 29 28 92 9c 0a 12 db 3f 6e 47 64 af 04 56 e3 3f
       0.42297616281632827 0.6042502809161598
000740 83 1e 30 1f 40 27 d4 3f ee 12 03 d1 eb f2 e3 bf
       0.3148956589288689 -0.6234034616723798
000750 64 6c 8b c1 7e 61 ca 3f 57 6b 3e 87 d1 c0 c9 3f
       0.20610031557484654 0.20119685271932994
000760 84 2b ea 97 c7 c7 e2 bf c6 08 e5 32 5b 15 cc 3f
       -0.5868871657452108 0.2194017408856494
000770 7e 16 07 ae 0c 7a db bf e6 e3 4b 6a f2 0e e3 3f
       -0.4293243121613627 0.5955745769598451
000780 5d c8 63 ca 45 ec d2 3f 7f 5c 17 79 2d 3f 82 bf
       0.2956709362471253 -0.008909564264213408
000790 16 4f a8 fb 2e f8 e4 3f 45 3c f1 08 86 35 e5 bf
       0.6552958407578184 -0.6627836393980792
0007a0 2f 49 5c 8b 48 4e d0 3f 98 52 de bd bf d6 e0 bf
       0.25477803811476724 -0.52621447642976
0007b0 7d fe 63 d4 a8 14 e4 bf 66 81 4a 6f 01 25 e1 bf
       -0.6275219105009026 -0.5357672856953684
0007c0 99 32 8f 40 ab f4 ce bf 8b b2 b5 9d ed 14 d7 bf
       -0.24184170391381057 -0.3606523552069027
0007d0 ed c2 50 bb 2f 6e a6 bf 4c 1d e2 0d 80 51 95 bf
       -0.04380940591398095 -0.0208187111352605
0007e0 fb c4 be 1a 40 d6 e5 bf 35 29 53 13 bc 33 a9 3f
       -0.6824036142699293 0.04922282920741098
0007f0 ba 50 c3 4b c2 95 c7 3f 50 ef f0 12 1c be e1 3f
       0.18425778102267093 0.5544567460960739

linear0.bias f8 [128]
000000 e1 75 26 81 6f 40 ac 3f 9c ae dc e2 38 4b e0 3f
       0.055179104342851344 0.5091823988818365
000010 58 3c 94 74 54 5d e2 bf b3 e7 61 5c 38 77 91 bf
       -0.5738928105291832 -0.01705635131700207
000020 7a cd b1 ed 98 f4 d0 3f a1 53 b2 b2 40 b7 d7 bf
       0.26492903911931587 -0.37055985880697945
000030 b7 52 b9 7f 21 45 d4 bf 73 5c a5 fb d0 e0 b9 3f
       -0.31671941254652886 0.10108667510699991
000040 e3 26 9e d2 3a 8c e1 bf f7 5f c7 b9 05 e3 d7 3f
       -0.5483678926113636 0.37323134558164334
000050 e0 c9 9f fb 54 90 d0 bf 1a 1a ee ad 08 85 d8 bf
       -0.2588093240039182 -0.3831197451148981
000060 56 e9 15 42 53 dd e1 bf d3 dd 7a ac 35 7c e2 3f
       -0.5582672396406376 0.5776623123883219
000070 0e 1b 16 cc ea ea e0 bf 4f b0 ce 4b 01 3c c7 3f
       -0.52867641316047 0.18151870919735066
000080 b3 71 10 b8 60 a8 d9 3f f1 0d 88 08 3a e7 d4 3f
       0.4009019658567709 0.3266129573168817
000090 dd 31 bb 6b 41 e1 d9 bf 60 6b 86 19 be b2 db bf
       -0.4043735076964177 -0.4327845811146087
0000a0 7e 62 48 2a b7 1a a2 bf ba 2c f8 f9 1f 80 d0 bf
       -0.03536007300516973 -0.2578201237781276
0000b0 d0 08 50 94 be e5 c3 3f 6a 75 11 c3 8f 48 b0 3f
       0.15544874421909194 0.06360720169455694
0000c0 00 d9 8c e3 c8 a1 cd bf 60 97 6b 5e 43 74 de 3f
       -0.23149977789734777 0.4758461401055367
0000d0 cf 96 fa 2c 23 6e e5 bf 0a 66 06 fb 7c c6 a9 bf
       -0.6696945074551993 -0.050342469828319095
0000e0 f2 26 ab 5b 68 5b 8f bf 3a d9 c3 3b 5e d3 d0 3f
       -0.015311065003874334 0.2629008849757103
0000f0 53 c3 ab 2d a2 dd ce 3f 02 8a 06 3b 66 58 d9 bf
       0.2411387179377252 -0.39602046741688934
000100 59 55 8f c8 24 9b b3 3f 3c 20 39 be 80 38 e4 3f
       0.0765860547683891 0.6318973269744741
000110 64 69 12 e8 d6 8e e6 bf 10 44 52 c5 15 41 d0 3f
       -0.7049364597944927 0.2539724757162398
000120 b2 ca a4 e9 5b 65 da 3f be a8 98 04 43 23 df 3f
       0.4124364644696171 0.48652720879421085
000130 a9 0a 6b d7 70 dc d9 bf 0e 60 dd 10 83 47 d9 bf
       -0.40407963787962814 -0.39498974463413183
000140 58 bb a8 a0 03 99 af bf b9 9e 85 90 82 0a e5 bf
       -0.06171428047343025 -0.6575329611486814
000150 a0 98 d0 8e 28 41 b0 3f d7 db 49 d8 ad 36 c5 bf
       0.06349423872652205 -0.16573117314302863
000160 26 82 78 1b 68 d1 be bf 6f 01 68 a0 7c 01 ae 3f
       -0.12038279219314826 0.05860509355625509
000170 84 01 d5 36 85 c7 cd 3f 63 0c b7 05 28 06 e6 bf
       0.23265137841555028 -0.6882515060064062
000180 a4 2d 36 62 f7 30 d0 3f c0 15 30 8e 65 ee e2 3f
       0.25298866835574985 0.5916011597734538
000190 13 eb fe 75 a7 c8 76 3f 94 20 9b eb 49 ae e2 bf
       0.0055624524538256 -0.5837754823378583
0001a0 93 b4 a3 3e 14 38 ca bf fc 07 4c 68 05 cd a9 3f
       -0.20483639772956916 0.05039231203228664
0001b0 12 58 7c 98 fe 65 e2 3f 3e 4c 24 c3 bc 37 c5 bf
       0.5749505022274681 -0.16576346901328692
0001c0 60 ca 30 3d 46 bd 6b bf a5 56 83 a3 ba 9c dc 3f
       -0.0033861514907809614 0.44706598251409907
0001d0 33 06 20 28 7d 34 86 bf 5e 39 17 7c 95 d0 e2 bf
       -0.010842302119274816 -0.5879619048735483
0001e0 20 17 71 70 02 ab d1 bf 34 48 91 c0 00 29 b7 3f
       -0.2760625932754568 0.09046940518717933
0001f0 30 74 63 7b 4a f9 d9 bf c2 2b 95 a3 f6 8d d0 bf
       -0.4058405117955912 -0.2586647603499693
000200 28 1f 43 7b be 85 db 3f ac 2f cb 55 85 cb cc bf
       0.4300380901081433 -0.22496096314568825
000210 dc cb ec 85 7a 9a ca bf 99 e3 4a ea 06 2b e5 bf
       -0.20783931292825641 -0.6615023208643037
000220 3f 6d 8d cf 1b 82 e3 bf bf 42 78 89 e6 0f a0 bf
       -0.6096324018248324 -0.03137131145570526
000230 a2 96 1e 18 40 9f d3 3f 4e c1 b6 e6 b3 f2 d9 bf
       0.3065948710958343 -0.4054383996072105
000240 e5 6f 36 2f 64 9c bf bf 81 1f d8 ef 78 df e5 3f
       -0.12348009255077803 0.6835293468911773
000250 87 80 40 ff f7 81 e2 bf 02 70 4a 8f 33 be e1 bf
       -0.5783653245344035 -0.554467944969929
000260 67 15 f6 67 51 8f c8 bf 0c 3c b4 d7 c3 d4 dd 3f
       -0.19187371803506467 0.46611114563796785
000270 13 b8 0a 65 ce c8 ce 3f 54 3e be 36 b5 b1 d3 3f
       0.2405031197899353 0.3077214274025881
000280 99 f5 c1 82 f4 52 a4 3f d8 e1 23 4f 9b 65 e0 bf
       0.03969539734041944 -0.5124031587320657
000290 78 6b 3e c4 71 a2 d5 bf fd d9 33 e2 11 19 cf 3f
       -0.338039819378245 0.24295257134481565
0002a0 d7 b7 49 3d c1 95 d9 3f f6 02 86 30 ac 90 da bf
       0.3997653101458786 -0.4150801156866203
0002b0 1b 19 49 b3 d6 a0 d7 3f 67 41 3e 40 87 d6 bb bf
       0.3691918135485978 -0.1087421924442019
0002c0 a7 83 b6 4b 60 7f e2 bf 1e df f5 33 23 6b e6 bf
       -0.5780488470810398 -0.7005783095218907
0002d0 9a 4c 4b 04 4c 2d d1 3f 35 62 71 0c 73 b3 a1 3f
       0.268389705842489 0.0345722153367131
0002e0 60 d5 17 41 61 a3 cf 3f 0e 75 98 4a ba 88 d2 bf
       0.24717345884679798 -0.28959519657821964
0002f0 94 57 1f 96 fe 82 ce 3f 2d 32 46 3e 05 92 c0 3f
       0.23837263422199995 0.12945619145138335
000300 29 d9 41 f5 6b b3 b9 3f 09 56 07 ae cd 5b e5 3f
       0.10039400804257483 0.6674564742085646
000310 07 36 ef 19 42 ab b0 bf 33 be 18 f0 eb c0 64 3f
       -0.06511319287456994 0.002533398452918134
000320 25 ec 78 f1 75 d0 bb bf 51 c4 a2 51 38 33 e1 bf
       -0.10864960809060216 -0.5375024408769012
000330 db 56 7e bb 32 90 d5 3f f2 03 05 a0 c4 aa 9a 3f
       0.33692615804589615 0.026042053477116363
000340 71 47 54 2e e4 ef de bf 17 75 5f bd f1 bb e5 3f
       -0.48339180492722905 0.679192418927104
000350 65 a4 33 80 a4 46 e4 bf 2e 55 de 29 ba 49 c3 bf
       -0.6336233619632706 -0.1506874756275151
000360 c6 b1 4d 1d 00 72 d0 bf 83 c4 cb dc e1 4a bd bf
       -0.25695803510350534 -0.11442386284376664
000370 87 c1 24 be c3 f2 da 3f 84 e3 81 0e 35 a4 da 3f
       0.4210671765204314 0.4162724153207409
000380 66 d1 2b 20 44 85 d5 bf 64 32 58 59 b2 a9 d1 bf
       -0.3362589182063601 -0.27598246312189745
000390 9f 70 a1 f3 41 29 cd 3f 97 1a 10 83 51 34 e5 bf
       0.22782158275629613 -0.6626365241835
0003a0 4b 95 2e 9e a5 a7 d7 bf 9a 66 b9 17 dc 8d e6 bf
       -0.36960735747773715 -0.7048168624271114
0003b0 1b a2 a4 fa ba e6 e2 3f 38 84 16 1b 30 3d e3 bf
       0.5906653304455775 -0.6012192277013417
0003c0 bc b5 16 66 ee c9 e3 bf f9 c1 e0 8c 20 ea ba bf
       -0.6183998102111938 -0.10513499678996387
0003d0 df 0a 5e a3 31 fd a4 3f ba 59 10 98 66 58 c3 3f
       0.04099421614866627 0.15113527703279123
0003e0 76 b7 29 e7 d1 c7 c2 bf d1 16 cb 41 f7 d0 d5 bf
       -0.14672302043203062 -0.3408792631638394
0003f0 45 e7 26 5a 8c 87 c2 bf e8 43 82 20 8f bd b3 3f
       -0.14476160432769283 0.07711119216607154

linear1.weight f8 [128, 128]
000000 ec fb 9b 78 22 c7 b4 bf da 06 49 78 eb bb b1 3f
       -0.08116355366290379 0.06927367865230441
000010 6e fa 6f 3b a1 53 b2 bf f1 aa 26 09 24 13 b5 3f
       -0.07158858967884793 0.08232331489004331
000020 56 80 96 47 7d 06 ac bf a3 da 37 13 bc 42 b5 bf
       -0.054737009991413885 -0.08304954022592397
000030 a3 f3 15 14 ec 27 8d 3f 6c 09 cb 46 38 ad a9 3f
       0.01423630176827279 0.05014968742536294
000040 59 8c 02 0b ca a4 a1 bf 20 a6 e9 f9 88 71 ab bf
       -0.03446036705397466 -0.05360057879154234
000050 27 94 c3 39 76 b5 89 bf 17 d8 79 9e e5 54 a7 3f
       -0.012553142202202562 0.04556958732148091
000060 f9 de 32 fe 4f 31 8f 3f 2f cd 46 c1 83 c1 7c bf
       0.015230774827031267 -0.007020487468639743
000070 e1 c2 61 f5 af 24 b5 bf a8 6f a0 b9 7f cc b2 bf
       -0.08259105435150672 -0.07343290597822139
000080 64 7f 4e 2f 6c a5 ab bf 97 d0 3b 41 32 35 a9 bf
       -0.05399644925569083 -0.04923398062047218
000090 24 8a c3 89 b8 a3 b4 3f e7 8d ba 22 33 9b b4 3f
       0.0806231819474666 0.08049316022748308
0000a0 61 3a b3 45 87 8b a4 3f 36 be 4a 38 64 24 af 3f
       0.04012701726752677 0.06082451998861098
0000b0 80 c9 0a 17 06 07 92 bf 20 f1 48 ad 24 84 b6 bf
       -0.017604918629055444 -0.08795384626950353
0000c0 ae 14 b1 ef 02 0c 8e bf 6e 4c 8b 83 af 98 4f bf
       -0.014671347560702177 -0.0009642464638893852
0000d0 8d ee d0 bd 55 cf b1 bf aa 61 fc bf 95 7a a0 bf
       -0.06956992992575746 -0.032185249028944554
0000e0 25 49 9c 1f 29 6e b0 3f 38 55 b0 f7 a2 62 af bf
       0.06418091794720178 -0.06129941247506071
0000f0 62 b6 d7 ad 20 69 b0 bf 3d f0 7a 1a 59 57 aa 3f
       -0.06410412067608598 0.05144766281361555
000100 a7 8b bf b1 22 47 8a 3f 16 ad 94 fc fd 25 b1 3f
       0.012830992745824178 0.06698596397898302
000110 eb be 27 09 66 ec 86 bf 23 36 ed 89 be 47 a6 bf
       -0.011193082003017682 -0.04351611550974279
000120 e1 be 45 b0 70 d9 b5 bf 5c 27 34 a8 42 48 9f 3f
       -0.0853491239884039 0.030549088970509217
000130 cd 25 85 ea fa 01 a7 3f d5 25 28 08 fe 7c af 3f
       0.04493698227686203 0.061500490661341146
000140 d2 fd 7b 2a fb c2 8a 3f 62 19 a5 65 c0 8e b1 bf
       0.013067209466952532 -0.06858446580472369
000150 21 4d d9 86 b9 24 b2 bf 90 46 94 7b 17 86 a6 bf
       -0.07087287466247406 -0.043991788707114954
000160 d3 c8 ad 35 a2 cd 8e 3f 02 60 8c 63 6a ca b5 bf
       0.015040652526043285 -0.08511986666087526
000170 ec c6 46 b6 79 f9 ad bf ce 96 50 c5 30 b6 94 bf
       -0.058543971539064404 -0.02022625164331409
000180 ee ed df f1 e1 67 92 3f 29 85 93 24 1c 4b a6 3f
       0.017974405658589925 0.04354179331290659
000190 22 67 f7 69 c2 f3 98 3f 9d a4 9f af 90 df 56 3f
       0.024367368428875776 0.001396075530005348
0001a0 3d 1c 58 25 8f 34 b3 bf 73 61 2f 0e 2d 87 94 3f
       -0.07502073919032255 0.020046905508793466
0001b0 f5 e9 3a 70 1c fd b4 3f d3 31 0a 5f 8b aa 9e bf
       0.08198716869348018 -0.02994745032860797
0001c0 ed c4 0b 71 c1 f0 b2 3f ba a3 11 9d 68 72 8c 3f
       0.07398613939200845 0.013890092175829472
0001d0 81 5d c5 72 88 32 b6 bf fd 1d 35 56 42 c7 91 3f
       -0.08670857240701048 0.017361675750434447
0001e0 57 c3 48 d8 e5 60 94 3f a0 18 4c 78 c4 bc ab 3f
       0.01990088589281255 0.05417455643150615
0001f0 ea 1a b1 ff 5c d1 a9 bf 9e 3f 93 6b 6e 18 a5 3f
       -0.050425440037136074 0.04120202124761295
000200 47 c9 01 60 75 e2 b1 3f 26 ba e2 8d 5d 5f a6 bf
       0.06986173242493009 -0.04369633061411475
000210 1b cc 75 71 06 bd ac 3f 55 57 cb 31 76 25 a1 bf
       0.05612964758883995 -0.03348893506851761
000220 9f 4e 4f 5e 8d e1 9c bf e6 72 52 fe 31 8b a1 3f
       -0.028204163438046433 0.034265100760625875
000230 f2 be 89 81 1c ab 8d 3f ce 81 d1 26 19 24 b2 3f
       0.014486525252521674 0.0708633155604794
000240 b1 c1 cc 58 43 ae a5 3f 24 03 b5 d1 36 34 74 3f
       0.04234514674169832 0.004932607781768881
000250 d1 6b 45 96 34 62 a5 3f ab 3d ff 70 18 4f b0 bf
       0.04176487287869402 -0.06370690115658444
000260 d0 0e 70 72 86 b7 b1 3f 0b 9c 4a 9e b6 26 b3 3f
       0.06920662206544681 0.0748094688848228
000270 65 1b 51 8f 42 37 a0 3f 05 6e 92 97 d8 b8 b1 3f
       0.03167160033677056 0.06922677708137577
000280 67 d3 9d fd 03 0a a1 bf 35 50 e4 6a fa 6c 93 bf
       -0.033279537877126945 -0.018970406316910455
000290 e4 47 3d 65 4e d3 b3 bf 71 00 00 cb b1 ee a4 3f
       -0.07744302722610957 0.04088359454181124
0002a0 6e dc f5 1b ae 76 90 3f d6 e4 76 eb 06 75 b0 bf
       0.016077728706900656 -0.06428569077151577
0002b0 f7 f0 29 38 a6 c3 a2 bf bc 78 5e 5f d9 a8 b0 bf
       -0.03664893565744081 -0.06507643297524884
0002c0 21 e8 0f ea 2b 96 a1 bf bb bc e9 af a5 2d b6 bf
       -0.03434884292796903 -0.08663402123214585
0002d0 ba 0c 4a 4c 13 c5 b1 3f 4d de ee 52 3f 1a b2 3f
       0.06941338169603997 0.07071300291760814
0002e0 8f fa 4f 02 bc ae a7 bf 73 49 a1 b2 70 ef 9f 3f
       -0.04625499275424715 0.031186829474174126
0002f0 17 f3 82 62 ff b5 89 3f 61 63 5b 72 e5 48 b3 bf
       0.012554164117653905 -0.07533105890196402
000300 8c 8e 51 88 45 bb 8f bf e1 c6 29 65 eb 42 85 bf
       -0.015493911001790005 -0.010381545090442259
000310 f3 1d bb 4e e5 af a5 bf 74 b4 98 3a 33 82 ac bf
       -0.04235760294028159 -0.055680848029035085
000320 c4 92 e6 4d c1 2f b5 bf 5a 51 ac 63 3a 1a b3 bf
       -0.08275993492004391 -0.0746189587919778
000330 76 e0 18 89 5a b2 a4 bf 8a 3c f1 2b 38 ed 9b 3f
       -0.04042323039578914 0.027272107774760225
000340 38 bf e9 e3 82 23 9e 3f fc c2 5f 04 ff 73 9f bf
       0.029432339821539005 -0.03071592773625563
000350 38 c1 24 7e 12 fa aa bf e0 91 38 c9 5d 0f 86 3f
       -0.05268914975966016 0.010771496489788868
000360 70 ad 3d b7 19 8e a7 3f e0 01 f8 8c 52 5d ae 3f
       0.04600601541354876 0.05930574389276777
000370 87 cf 81 cf 64 34 b3 3f f7 f0 e9 f6 1c a0 b2 3f
       0.07501821580973288 0.0727556326691604
000380 d6 67 5d 29 a9 b2 9b 3f 9d 58 d3 a9 4a c0 9e bf
       0.027048724317275084 -0.03003040944607759
000390 69 5d db 51 72 dd b4 bf ed 71 5c 38 42 15 8d 3f
       -0.08150400637111023 0.014200703949932747
0003a0 7a 1b af 80 63 b1 84 3f 0e 5a 76 8a 73 e6 ab bf
       0.010103967060684605 -0.054492579128396654
0003b0 5d 17 36 43 78 9d a4 bf a6 55 34 f2 15 4e a4 bf
       -0.040263899044517194 -0.03965824681851453
0003c0 06 d9 52 a9 6b d9 86 3f d6 7d 04 8c df 99 a8 bf
       0.011156884293410229 -0.04804895958136128
0003d0 da 6d ce db f7 fc a1 3f 70 0c eb c6 82 74 93 3f
       0.03513311918433333 0.01899914111232842
0003e0 5b 67 8d 2b d8 9f b6 3f 2f 5e 47 ac f2 86 b6 3f
       0.0883765322045326 0.08799664217019008
0003f0 b6 25 13 f6 59 03 b6 bf f2 1d d7 8c c7 f8 b3 3f
       -0.08598863847432522 0.07801482380374816
000400 66 b0 49 eb fb 2f b4 bf 7c f0 b3 ad ae 68 a9 3f
       -0.07885717863399719 0.0496267878570231
000410 b5 e3 0a 55 c5 c2 b3 bf 70 81 20 27 8b e1 94 bf
       -0.07719071699365439 -0.020391630423661267
000420 ba 23 32 c6 76 fc 9c 3f 9a 8e 14 ae 89 f0 b1 3f
       0.02830682358447565 0.07007656574256274
000430 80 f6 c9 1d 2f 54 b1 3f ed 8e 08 a1 24 4e 82 3f
       0.06769079663532729 0.008938108600950534
000440 fd 03 b5 2c f6 c1 b3 3f 09 bd 36 56 da 8c 7e bf
       0.07717836944085828 -0.007458546522158168
000450 c0 05 f3 65 51 67 b4 3f 5c d1 9f 84 45 01 ad 3f
       0.07970150698658696 0.05665032619427521
000460 ed 52 18 aa 04 b7 8c bf cf 3b c8 f1 1e 7f b1 bf
       -0.014020954552543563 -0.0683459606445773
000470 e6 7f 88 9c 50 b4 70 3f ff de 52 30 ec 7e b1 3f
       0.004078211678034882 0.0683429353692837
000480 48 fd 2a 90 76 3e b1 3f 4e d0 6a 5b a2 12 b3 bf
       0.0673593618366698 -0.07450308544031367
000490 bf 63 7a 36 23 a5 88 3f 8f 8d 9f 32 cd 52 a3 3f
       0.01203372488025589 0.037741100720974356
0004a0 ab 7a 2c de ff a7 6a 3f 16 04 3e cd 38 eb b1 3f
       0.00325393652145974 0.06999545107648006
0004b0 27 3c c8 3a a0 8d 83 bf cf b1 19 43 e1 aa a5 bf
       -0.009547473710908317 -0.04231933540436083
0004c0 74 67 d4 12 7d cb 99 3f 1b 88 ff 8b 21 5a b3 3f
       0.025190309786104106 0.07559404056476675
0004d0 9f 5b 79 41 a5 21 67 3f f0 a6 98 ab 4f d6 87 3f
       0.00282366062655677 0.011639234947398575
0004e0 38 f1 91 0f 02 62 95 bf f0 cf b6 dc 83 6c 90 3f
       -0.02088168354065198 0.01603895220405599
0004f0 06 2f c7 ad 08 e1 a2 3f ac c5 ca 07 69 a4 a2 bf
       0.03687312241853928 -0.03641060085409306
000500 11 7b 54 3f 78 02 a5 bf f1 76 c2 65 14 85 a1 bf
       -0.041034467440331686 -0.03421844236548378
000510 36 87 a7 da 9c 1e ab 3f 17 d0 85 b8 a1 6e 94 bf
       0.05296793145295313 -0.019953276526806087
000520 f2 88 1c 24 30 17 9e bf 0c 00 16 a4 a4 ef 79 bf
       -0.029385330394810567 -0.006332057121994705
000530 4d f4 9b 99 ec 2f b4 3f ec b9 b9 77 31 5a 6d 3f
       0.07885626554703258 0.0035830465474682074
000540 fe 2d 38 26 36 38 93 bf 8b 66 d3 34 b0 8c b4 3f
       -0.018769117434244358 0.08027173318569163
000550 24 49 89 76 92 9c af bf 59 76 ab 35 7f 26 a3 bf
       -0.06174142548538189 -0.03740308313511482
000560 74 a2 48 0d cd fe a9 3f bc 5c 33 86 be 78 b6 bf
       0.050772102233456545 -0.08777991081602726
000570 38 01 75 cd 44 81 af bf 45 1b 6a 08 2d ca a0 bf
       -0.06153311737080219 -0.03279247977939418
000580 be 07 4a 5d 09 54 b4 3f db 90 fc 30 47 bf a3 3f
       0.07940729644363295 0.03856871102314737
000590 78 c3 8a d9 ad b0 a8 bf 82 52 06 9a 5d 07 9b 3f
       -0.048222954564500264 0.026395285154267707
0005a0 ad c4 cc d3 69 0c b3 3f eb 13 c1 b7 8a 35 b1 bf
       0.07440816326995288 -0.06722323404490253
0005b0 56 fd 41 a7 8f 0e b5 bf ab 7a d6 83 72 2c b1 bf
       -0.08225343545381256 -0.06708446234413638
0005c0 d6 3a b2 cf 68 66 95 3f da 4e 0c 93 96 7b aa bf
       0.02089847343136849 -0.05172415299435125
0005d0 47 57 b3 6f 76 69 9b 3f 19 84 a5 7b 28 f3 af 3f
       0.026769495551739266 0.06240202435834181
0005e0 f2 f9 15 09 e2 5f b1 3f b8 6c 09 94 e1 2c a1 bf
       0.0678693077261199 -0.03354554111566571
0005f0 eb 11 12 06 36 d6 b1 bf 79 88 30 e1 7e 41 b1 3f
       -0.0696748509236113 0.06740563390533962
000600 db 49 8c f7 63 88 a3 bf 22 68 32 04 c3 bf aa bf
       -0.038149951904546696 -0.05224427629691798
000610 65 a4 2a ef fb c2 ac 3f fb bd 64 3d 93 1b 98 bf
       0.05617511076463514 -0.02354269087044079
000620 2d ed 22 35 69 1d b4 3f 07 c2 a7 b6 09 bb a7 bf
       0.07857377574230347 -0.04634886126212128
000630 60 4f ba 1c 77 38 b2 bf a4 a3 0b e2 77 8b a0 bf
       -0.0711740918289343 -0.032314058631363524
000640 ea 84 8b 49 51 3b 60 3f ed f1 00 b1 87 01 58 bf
       0.001981409801701352 -0.001465208541062353
000650 fe 39 ac 24 ff 40 b3 3f 1d 13 22 91 80 00 96 3f
       0.07521052022296001 0.021486290796491326
000660 2b 92 e0 25 b4 51 9f 3f bd 00 30 a4 6d d8 ae bf
       0.030585112392275498 -0.06024496678583222
000670 57 6c 36 2d a6 a0 b2 3f 4f 4b 00 f3 df ed ab 3f
       0.0727638111479093 0.054549215710855685
000680 e2 ee be 04 34 03 a2 3f db 2a 21 23 62 a1 b5 3f
       0.035180688456845535 0.0844937644734886
000690 d5 4e 28 c1 73 f0 82 3f 9c 4b 8b 13 36 14 6a 3f
       0.009247688610265406 0.0031834655932043276
0006a0 52 9e e5 bd 20 9e 9d 3f da 7d bd 0f 5e d9 b3 bf
       0.028923522558584054 -0.07753551372797265
0006b0 cc 52 98 e7 bd cd 9f 3f 0c 0f 5a 6a 67 c8 89 3f
       0.03105828023952277 0.012589271481608509
0006c0 f3 c1 ae 66 0b 90 b5 bf 0a b4 44 ee ab 80 b6 3f
       -0.0842291951837593 0.08790087287043505
0006d0 2d ed ad 48 39 6c b3 3f 3e f3 8b 2b 95 6c 60 3f
       0.07587011360549374 0.0020049012640569732
0006e0 9b 88 54 05 97 c8 ab bf 92 8f 50 8d 50 e2 b3 3f
       -0.05426475467744859 0.07767203760209743
0006f0 2a 16 52 2e de a1 84 bf e4 2d 3c 10 dd 95 b2 bf
       -0.010074363506883694 -0.07259923597683088
000700 c9 48 29 9f 80 39 b4 3f 63 f1 34 64 0a 9a b2 bf
       0.07900241742871396 -0.07266297289328842
000710 d3 4b d9 f2 09 94 b4 bf cd 67 2b 2d 6b 17 b2 bf
       -0.08038389376569847 -0.07066984036228448
000720 0e ef cc 82 16 50 87 bf db 9a e5 62 89 02 b2 3f
       -0.011383224360194368 0.07035120644068675
000730 9e 1f 8a e9 06 75 a6 3f a6 db 5d 77 f1 89 a4 3f
       0.04386159516167186 0.04011492330658166
000740 48 fb 59 10 98 e9 a1 bf 3b d5 d4 95 b2 52 ac bf
       -0.03498530578234821 -0.055318432607615674
000750 78 ea d6 2d 8e 8c 78 3f 34 12 b8 7b 2a bf a4 bf
       0.005993419062571996 -0.040520980455799466
000760 c6 6e 5e f6 df f4 ac 3f e1 0d ee 26 d2 e1 b0 bf
       0.05655574686462965 -0.06594575357853884
000770 96 db 73 84 fe 40 b6 3f 5e 55 3d 72 e3 f2 b3 3f
       0.08692923291878993 0.07792493380596485
000780 82 e0 7e aa 38 33 95 bf 86 c9 36 d3 a3 c5 b2 3f
       -0.020703206449724572 0.07332824617950537
000790 ab 50 5d 30 e4 56 a8 3f 33 f3 e4 d8 fe d3 62 bf
       0.04753792848956214 -0.002298352955362759
0007a0 29 66 de 84 bc 1f a2 bf 60 08 98 6e d4 0b ab 3f
       -0.0353983795350355 0.05282462930701182
0007b0 60 4f ad 17 3e 3d 8d 3f 00 f0 44 77 1f 7b 90 bf
       0.014276967141689745 -0.016094676642055106
0007c0 29 e5 ae 91 08 ff 9f 3f d5 f0 20 c6 77 d9 b1 bf
       0.031246312991901313 -0.06972454630971765
0007d0 a8 b8 e5 e4 6f 66 95 3f f7 1b ce 78 94 8d b4 bf
       0.020898578973565535 -0.08028533887237176
0007e0 db bf 42 08 82 64 a3 3f 5b 4f 2b 69 f2 9f a4 bf
       0.037876189716712104 -0.040282798135790464
0007f0 a2 89 92 b4 dc 1c ab 3f 25 21 3e ae 2f 11 a0 3f
       0.05295457557919582 0.03138112070070268

linear1.bias f8 [128]
000000 b5 10 90 33 25 6b a1 bf 0a 40 9d 33 ea 90 9b bf
       -0.034020578903466804 -0.026919993782314612
000010 45 06 3f 54 14 4d ad bf 2b c1 20 60 3a 0e 99 bf
       -0.05722869423290126 -0.024468338124450966
000020 02 e9 21 02 30 b2 b2 3f 99 2b 3c 14 87 0a 6f 3f
       0.07303142597257664 0.0037891996634064726
000030 6c c1 82 b1 7d a3 a1 3f d8 74 77 ed 13 5a 9b 3f
       0.03445046226386492 0.026710807198345815
000040 a1 ec 45 43 7d 08 ac 3f 87 6c 24 3a c3 e8 99 bf
       0.05475226827817293 -0.025301981376383977
000050 83 23 d5 37 3f a8 b0 bf be 2e a6 97 d9 22 b4 bf
       -0.06506724465465479 -0.07865676834461063
000060 c4 ab e5 20 1c 1d 9a 3f 11 c7 60 07 43 66 90 3f
       0.025501670368082832 0.016015097928352044
000070 d4 f0 90 64 8c cd ab 3f e0 fc 3d d5 a7 fe a7 bf
       0.054302584911484125 -0.04686474302342858
000080 20 ca 3c 1d 2c 9e a8 bf 0d cc 62 42 0c 5a b6 3f
       -0.04808175904181078 0.0873115217280402
000090 50 61 81 3d d7 14 93 3f 7d b9 4d 84 7b 34 b4 bf
       0.018634188775054128 -0.07892581920689241
0000a0 7e dc 72 fc 98 19 96 bf d4 d0 89 57 2c fd a3 3f
       -0.021582022102589075 0.03904093330939565
0000b0 73 6a 38 2c b5 81 7a 3f 1a 9b 3b bd 6d 2d 9e bf
       0.006471355157851566 -0.029470171618323972
0000c0 ba 44 e8 83 66 3a 94 3f 1e 51 f0 1b c3 50 58 bf
       0.019754030037863336 -0.0014840989458707108
0000d0 f4 5e 38 42 84 bc 63 3f 33 87 c0 44 58 20 b5 3f
       0.002409227674217246 0.08252479246632731
0000e0 db 03 92 7e 43 5b b3 bf b3 92 eb b9 e1 5f 8b 3f
       -0.07561132278534848 0.013366473661741684
0000f0 b4 78 78 61 42 d2 b3 3f 7d 4c 45 9e 19 ab a9 bf
       0.0774270523038208 -0.05013351494803773
000100 e6 98 25 c5 1c 67 a3 bf ea 55 67 d0 9a 13 a2 bf
       -0.03789606005266126 -0.035305822315119986
000110 3a 13 ff ec 0b 59 a4 3f cf e2 10 c0 59 ac a2 bf
       0.039741871528838194 -0.036471180625488146
000120 fb 13 a7 92 bf 88 92 bf 33 fc 3b 04 e5 0c ab bf
       -0.01809977848622067 -0.05283275295914116
000130 19 50 69 a3 47 2d a8 3f e0 b6 11 6e bd e8 b1 3f
       0.04722045774238399 0.06995757996784446
000140 3c 87 e7 46 1f ab b4 3f c4 27 ab c2 43 78 b2 bf
       0.08073611718239432 -0.07214759352350969
000150 7d d2 88 a3 d5 8e 71 bf 1b 0a 2f 2d f2 dd aa 3f
       -0.004286608244502885 0.05247456361350463
000160 8f d1 e2 9e a6 78 b0 bf 5d ee a4 2e 28 c1 aa 3f
       -0.06434098605206472 0.052254920667533546
000170 41 ea 81 3b 3f 4f ab bf 49 36 57 30 b5 12 ac 3f
       -0.05333898164186169 0.05483022894950957
000180 c7 5a 9e 8e e2 11 ae bf d7 e9 3a f1 fe df 6a 3f
       -0.0587302016348779 0.003280637678327407
000190 06 70 e6 80 08 65 b2 bf e2 d7 fa da ac 3f b2 3f
       -0.07185414454437486 0.07128410669505983
0001a0 17 66 57 10 c5 07 ad bf 0d 59 9a a3 9e 82 82 3f
       -0.05669990372161864 0.009038199775471623
0001b0 f0 5f a3 c1 a0 1d 93 bf f3 9a 47 92 9b d2 aa bf
       -0.018667709177719816 -0.052388059240731887
0001c0 c0 ac 00 27 94 cb 98 bf c7 68 5b 4c f4 6b a4 bf
       -0.024214091187030773 -0.03988612587063894
0001d0 47 57 bb ac 97 86 a6 bf 33 27 d9 1b 4f f9 a1 bf
       -0.04399560912649619 -0.035105201863713374
0001e0 e0 f8 cd 96 4a b7 9d 3f f7 91 33 22 a7 06 94 bf
       0.029019513563519506 -0.019556628668299294
0001f0 c0 8a b2 4a c7 93 a8 3f c2 83 bc 43 80 c7 a6 bf
       0.048002460354174215 -0.04449082209453749
000200 7f 5d c4 0b 7c 3c a7 3f f0 d8 fd 55 27 fa b4 bf
       0.04538333552971618 -0.08194204186824883
000210 c1 15 57 7d ba 52 a4 3f ea 8d 72 7e 51 27 af 3f
       0.0396936681750435 0.06084685009525599
000220 3b 09 be 29 68 1a a1 3f c2 ef 9c 5d 8a bf a4 bf
       0.03340459355878741 -0.040523837973949664
000230 1a 29 3c ed f3 b6 ad 3f 84 a5 f6 8a 75 25 3f bf
       0.058036444386816835 -0.00047525520036603036
000240 f8 28 6a 90 df de aa 3f 2b b1 cd 51 7e a9 ac bf
       0.05248163831591229 -0.05598063229158109
000250 9a 25 48 3a c4 18 b5 3f 01 77 61 d7 28 4e ad bf
       0.08240915701767051 -0.05723693493994909
000260 c2 8c 93 72 03 bb b3 bf 55 d8 58 ef 57 a9 ac bf
       -0.077072349045511 -0.055979488341492946
000270 3b 7f be 11 f6 20 95 bf 41 3a 51 a3 8a 20 9b bf
       -0.020633549530997924 -0.026491323679062487
000280 a9 e6 ea a7 a5 78 76 3f c9 68 bf 3c df 8b b2 bf
       0.005486151784390416 -0.07244677765939679
000290 d5 f1 6d b1 80 7e 96 bf fd c1 cd 7e 70 ea a3 3f
       -0.021966944531856065 0.03889800594231827
0002a0 04 6c 5e 31 bf 20 b3 3f 3c b0 d7 50 6a 72 73 3f
       0.07471842723172989 0.004747786804255635
0002b0 a0 5d bc 36 65 71 ae bf 72 4c b8 8d c5 7e b6 3f
       -0.0594588879886786 0.08787188253363512
0002c0 91 76 21 6d 2d 99 6b 3f c6 f6 79 69 03 40 a0 3f
       0.0033689391357672534 0.03173838293603874
0002d0 e0 9c 75 c9 a6 2a b3 bf b1 93 24 d3 c4 6a 9e bf
       -0.0748695604175853 -0.029704165827883326
0002e0 b0 06 17 d4 e0 ce 86 bf 92 e3 ee 04 45 39 a2 3f
       -0.01113677642104291 0.035593182422821404
0002f0 43 bf 9b 16 fd 4a ab 3f 54 10 42 b0 56 8a ac 3f
       0.053306492814839256 0.05574293996417681
000300 69 e1 47 fe 66 99 69 3f 4a 73 05 0c 33 95 9c 3f
       0.0031249057376465006 0.027912900551530208
000310 c6 4a 22 c8 70 44 b5 bf eb 93 24 6c 9a 0b b6 bf
       -0.08307556997378204 -0.08611455097395974
000320 2f 1a cd 60 4c 20 89 bf c2 0a 3f d0 05 de b0 bf
       -0.01226863546766052 -0.06588779768120914
000330 08 82 71 f5 b6 83 b6 3f b7 71 98 45 a5 24 64 3f
       0.08794730655927918 0.0024588802305187357
000340 55 6d 3c 31 ff 29 9c 3f 3b a1 0b 47 f1 eb 93 bf
       0.027503955249909968 -0.01945473667265783
000350 19 f8 e9 99 94 b8 b2 3f b6 8b d1 23 24 71 a5 bf
       0.07312897451080892 -0.041878823635463844
000360 a9 0a 43 c1 3f 3a 97 bf c2 6a df 7a 9c 90 a4 3f
       -0.022683139963883523 0.04016579627906004
000370 7a 96 75 cb 08 28 b1 bf 58 78 00 75 9e a2 b1 bf
       -0.06701712577122435 -0.06888761860361237
000380 99 6c e1 5e 0b 5f a4 bf bb a3 dc 37 96 17 b1 bf
       -0.03978763135156633 -0.06676615585150973
000390 fb e3 22 48 d4 c3 a8 bf 10 71 21 fb 18 4d b4 bf
       -0.0483690584237095 -0.07930141574019367
0003a0 b3 89 86 be b8 72 a6 3f 52 c8 61 4c 46 ae a7 3f
       0.04384400678397373 0.04625148470303543
0003b0 21 12 a7 ab 3f 7e b5 3f 9b 55 89 de 35 8d b4 bf
       0.08395765248048594 -0.08027970011729339
0003c0 aa c2 ec a7 f6 ed 8a bf e3 fc df 35 e7 5c b0 3f
       -0.013149191856059634 0.06391758981043298
0003d0 9d 0c c5 2f b8 ea 57 bf ec ed 8f 2b f4 64 9d 3f
       -0.0014597700783987374 0.02870542064554897
0003e0 06 0f 0d 5c 5b 21 8e 3f e0 aa f1 c3 73 8b aa 3f
       0.014712060686754135 0.05184518591780374
0003f0 bb a7 a2 58 5b 1b 9c 3f b0 b7 d0 75 35 f4 a4 3f
       0.027448107991098186 0.040925665504217945
